saved_model.pth (torch, 421112 bytes, 68 tensors)

initial.0.weight f4 [26, 3, 3, 3]
0.05805249 -0.062020987 0.13025364 0.15419236 -0.14315772 -0.14826755 -0.16564469 0.018574232
0.12702721 0.19201931 0.20143077 -0.036613964 -0.09482918 -0.15515593 0.11169304 0.16820015
-0.11297851 -0.14030331 -0.1414931 0.16377479 -0.1605176 -0.17143434 -0.038862508 -0.10929951
-0.0063016014 0.13384277 -0.16996111 0.062486675 -0.009920499 -0.16955313 -0.16951734 0.07594833
-0.04167101 0.014152428 -0.09918008 0.10917537 0.06552016 -0.122365825 -0.06704064 0.09895075
-0.1592914 0.07747987 0.16507065 -0.011527217 -0.12189332 0.16249649 0.086993866 -0.16824944
0.101103485 -0.03431399 0.14738181 0.1684121 0.03035773 0.13868989 0.11293439 0.06928274
-0.13075562 -0.07503857 0.09938908 -0.061075747 0.015019447 -0.18202429 0.057170756 -0.14313161
0.18126549 0.118900016 0.13139269 0.19871987 0.0432836 0.20476758 -0.1330991 0.08962139
0.07210158 0.07525037 -0.051962316 -0.16796842 -0.12512256 0.079506196 0.11664737 -0.17712979
-0.13046953 0.15123384 0.08670005 0.045376666 -0.18353033 0.08675485 -0.0064771874 0.1481969
0.10543019 -0.047525913 -0.12415573 0.13342808 0.06688408 0.09259759 0.073857546 0.03651138
-0.06097063 -0.10328473 -0.10672091 0.06439947 0.10242503 -0.018383803 -0.07768783 0.07894974
0.1911683 0.19159858 0.05043219 -0.080327876 -0.020533308 -0.1346342 0.17085733 -0.11271254
0.064072676 -0.1339696 0.16428144 0.10393648 0.015268677 -0.09556285 0.16232206 0.047968127
0.14335999 0.025829596 -0.18653287 -0.09807353 0.11425593 0.15405196 0.17904204 -0.027147112
-0.167174 0.1696025 0.050575763 -0.00085506384 -0.034317106 -0.07618835 -0.16671702 0.0056691174
-0.046212 0.10240901 0.0057931873 0.04692891 0.16509424 0.06485621 0.010342962 -0.105971105
0.13777028 0.12708387 0.100589044 -0.191765 -0.12862167 0.043146767 -0.013500459 0.035927277
-0.04030655 0.1531917 -0.030707806 0.0020268892 -0.055438694 0.093356654 -0.058791682 -0.003678036
-0.04122476 0.16694535 0.102473214 0.099214286 -0.14765108 -0.092319794 -0.013642294 -0.1962224
-0.13439183 0.10888576 -0.19317485 -0.03035239 -0.16847546 -0.045380436 0.18698454 0.03948764
0.01150969 0.17342165 0.030772595 0.023965534 -0.08021805 0.13923456 -0.04335156 0.06769042
-0.06733881 0.19203393 0.1401738 -0.08814556 -0.18213098 0.1415194 0.037370242 -0.06861979
0.100624084 0.078375615 0.076882645 -0.06745733 -0.017664013 0.0617633 0.032719433 0.17481288
0.052301683 0.17444438 -0.11442126 -0.018894663 -0.09312229 -0.060555093 -0.13849631 0.11034251
-0.06937008 0.1822316 -0.11013395 0.08548729 0.07901191 0.1640504 0.19701992 0.11659158
-0.052740138 0.13775109 -0.057577975 0.04261208 0.18225582 0.10061022 0.17523363 -0.14324182
-0.029437223 -0.071631186 -0.18911737 0.08353683 -0.04718286 -0.059673797 -0.053887133 -0.12138293
-0.06851421 0.11930811 0.033287946 0.1751005 0.042278584 -0.118846625 0.12319199 -0.11817854
-0.0872938 -0.107416816 0.07341129 -0.09291609 0.0108317435 0.05830405 -0.10253757 0.0481147
0.020662447 -0.045400627 0.016209252 0.13202718 -0.11950421 -0.065085374 -0.019442461 0.07885382
00000000: 73c8 6d3d b809 7ebd 3661 053e 9ae4 1d3e
00000010: f097 12be 73d3 17be c39e 29be fd28 983c
00000020: 6c13 023e b6a0 443e de43 4e3e 86f8 15bd
00000030: cd35 c2bd 32e1 1ebe 52bf e43d a93c 2c3e
00000040: 4761 e7bd acab 0fbe 91e3 10be 94b4 273e
00000050: ba5e 24be 7c8c 2fbe 4b2e 1fbd 6cd8 dfbd
00000060: aa7d cebb 140e 093e 490a 2ebe 07f2 7f3d
00000070: 9789 22bc 569f 2dbe f495 2dbe cc8a 9b3d
00000080: 39af 2abd 96df 673c ed1e cbbd 5697 df3d
00000090: 6f2f 863d ef9a fabd 9a4c 89bd b1a6 ca3d
000000a0: 491d 23be c4ad 9e3d 4808 293e a7dc 3cbc
000000b0: 34a3 f9bd 7b65 263e d729 b23d 9549 2cbe
000000c0: 580f cf3d d48c 0cbd 42eb 163e 3974 2c3e
000000d0: c6b0 f83c b904 0e3e 254a e73d 1ce4 8d3d
000000e0: cde4 05be d2ad 99bd 818c cb3d 902a 7abd
000000f0: 2014 763c 9364 3abe e22b 6a3d 1891 12be
00000100: a99d 393e da81 f33d ce8b 063e 397d 4b3e
00000110: 254a 313d 98ae 513e 214b 08be 6b8b b73d
00000120: fea9 933d de1c 9a3d 70d6 54bd eaff 2bbe
00000130: 2120 00be 25d4 a23d d1e4 ee3d 8361 35be
00000140: ce99 05be 0bdd 1a3e cc8f b13d e2dc 393d
00000150: 60ef 3bbe 87ac b13d 963e d4bb eec0 173e
00000160: c9eb d73d 88aa 42bd 5c45 febd 5fa1 083e
00000170: 85fa 883d cea3 bd3d a042 973d f58c 153d
00000180: 57bc 79bd f286 d3bd 7e90 dabd dfe3 833d
00000190: 37c4 d13d a199 96bc cc1a 9fbd 67b0 a13d
000001a0: 9fc1 433e 6b32 443e fc91 4e3d f182 a4bd
000001b0: 7835 a8bc 8cdd 09be 39f5 2e3e d5d5 e6bd
000001c0: 8938 833d 542f 09be 6539 283e a6dc d43d
000001d0: 7929 7a3c 75b6 c3bd c137 263e 3a7a 443d
000001e0: f6cc 123e 9798 d33c 7902 3fbe c6da c8bd
000001f0: 03ff e93d ccbf 1d3e cc56 373e 9f63 debc
00000200: a92f 2bbe 47ac 2d3e 8828 4f3d 5d26 60ba
00000210: 1890 0cbd a308 9cbd deb7 2abe 01c4 b93b
00000220: cb48 3dbd d1bb d13d c7d4 bd3b 8738 403d
00000230: 770e 293e 55d3 843d 8775 293c 6107 d9bd
00000240: a713 0d3e 4622 023e a101 ce3d 0b5e 44be
00000250: 66b5 03be aaba 303d 0731 5dbc 7b28 133d
00000260: 7b18 25bd 49de 1c3e f08e fbbc 8fd5 043b
00000270: af13 63bd c631 bf3d 8ccf 70bd 340b 71bb
00000280: 4bdb 28bd b9f3 2a3e 7add d13d dc30 cb3d
00000290: d831 17be 2912 bdbd ee83 5fbc 86ee 48be
000002a0: 039e 09be 7fff de3d a1cf 45be 93a5 f8bc
000002b0: d584 2cbe d6e0 39bd e078 3f3e cbbd 213d
000002c0: 2493 3c3c 7295 313e cf16 fc3c 5e53 c43c
000002d0: 5c49 a4bd 8193 0e3e 6891 31bd 46a1 8a3d
000002e0: eee8 89bd 8ba4 443e b889 0f3e a985 b4bd
000002f0: 8b80 3abe 76ea 103e 8a11 193d 8888 8cbd
00000300: 0014 ce3d 6583 a03d a674 9d3d 1227 8abd
00000310: 1fb4 90bc 84fb 7c3d d004 063d 2602 333e
00000320: 4a3a 563d 8ca1 323e b255 eabd fbc8 9abc
00000330: e6b6 bebd 9e08 78bd fad1 0dbe 41fb e13d
00000340: e711 8ebd ec9a 3a3e e98d e1bd f613 af3d
00000350: ffd0 a13d d4fc 273e 97bf 493e 91c7 ee3d
00000360: 0b06 58bd 9f0e 0d3e e2d6 6bbd 018a 2e3d
00000370: 45a1 3a3e bb0c ce3d 7270 333e fcad 12be
00000380: 5526 f1bc 5fb3 92bd fca7 41be 5c15 ab3d
00000390: d142 41bd 836c 74bd c1b8 5cbd 9d97 f8bd
000003a0: 2e51 8cbd cf57 f43d f158 083d 8c4d 333e
000003b0: 4f2c 2d3d dc65 f3bd 154c fc3d 9707 f2bd
000003c0: 18c7 b2bd 59fd dbbd a958 963d ca4a bebd
000003d0: a077 313c 3ad0 6e3d 38ff d1bd eb13 453d
000003e0: 4b44 a93c 02f6 39bd 44c9 843c 2232 073e
000003f0: a0be f4bd 7b4b 85bd cc45 9fbc 1d7e a13d

initial.0.bias f4 [26]
-0.053935587 0.07594493 0.055846203 0.1428006 -0.19264221 -0.12973143 -0.14009838 0.06961573
0.1223017 0.15358147 0.10543832 0.16000076 -0.120767064 -0.13798292 -0.06323409 0.056539204
0.09173794 0.119298875 -0.14930972 0.17595977 -0.12342532 -0.059936855 -0.05274007 -0.14270392
-0.14054833 0.010069341
00000000: 90eb 5cbd 0489 9b3d fdbe 643d 523a 123e
00000010: 0044 45be 51d8 04be f375 0fbe b192 8e3d
00000020: 5079 fa3d 7644 1d3e 0cf0 d73d 3dd7 233e
00000030: b954 f7bd 654b 0dbe e080 81bd a795 673d
00000040: 1ae1 bb3d f852 f43d a6e4 18be cc2e 343e
00000050: 6ac6 fcbd 5980 75bd f905 58bd fa20 12be
00000060: e7eb 0fbe e1f9 243c

initial.denseblock1.bn1.weight f4 [26]
1.0028683 1.0053229 0.9986814 0.9960365 0.9933595 0.98290014 1.0001688 0.9916649
0.9861836 0.9956744 0.9809401 0.99161416 0.9952231 0.994734 0.98939013 0.99549454
0.99759495 0.99455905 0.9884114 0.99656695 0.9880825 0.99816465 0.9995262 1.009247
0.9915118 1.0083396
00000000: fd5d 803f 6cae 803f 96a9 7f3f 40fc 7e3f
00000010: cf4c 7e3f 589f 7b3f 8805 803f c0dd 7d3f
00000020: 8776 7c3f 84e4 7e3f e41e 7b3f 6dda 7d3f
00000030: f1c6 7e3f e3a6 7e3f ac48 7d3f bbd8 7e3f
00000040: 6262 7f3f 6c9b 7e3f 8808 7d3f 031f 7f3f
00000050: faf2 7c3f b887 7f3f f3e0 7f3f 012f 813f
00000060: b8d3 7d3f 4611 813f

initial.denseblock1.bn1.bias f4 [26]
0.006358795 0.0037743861 0.0066761808 -0.0023020115 -0.0010762052 -0.00373438 -0.003590164 -0.0007411116
-0.00887261 -0.0050361943 -0.014383264 -0.0016911562 -0.0035412863 -0.008643772 -0.004957543 0.00012191937
-0.00058021967 -0.005860729 0.0024281675 -0.003886354 -0.0064520733 0.002629224 0.00757773 -0.0011687897
-0.008380243 0.0089213485
00000000: 705d d03b b15b 773b ddc3 da3b 58dd 16bb
00000010: 740f 8dba 80bc 74bb f548 6bbb 2847 42ba
00000020: 6c5e 11bc a906 a5bb c8a7 6bbc c9a9 ddba
00000030: ed14 68bb 9c9e 0dbc e372 a2bb f7ae ff38
00000040: e219 18ba 5c0b c0bb e421 1f3b 33b2 7ebb
00000050: ea6b d3bb 0f4f 2c3b 9b4e f83b 1332 99ba
00000060: 494d 09bc d92a 123c

initial.denseblock1.bn1.running_mean f4 [26]
-0.8912111 1.5088015 2.131416 2.1481223 1.0654342 1.228849 0.75933915 2.8106477
-1.1152585 2.1345081 1.0527914 0.50747526 1.4084896 2.023747 -3.419744 1.4990494
0.89759374 -1.8175234 0.61068135 2.684878 0.77244955 2.2807348 -0.8945984 1.0282704
2.4568963 2.426754
00000000: 6926 64bf 6820 c13f 1f69 0840 d67a 0940
00000010: 2660 883f ed4a 9d3f 0d64 423f a7e1 3340
00000020: cac0 8ebf c89b 0840 dec1 863f e6e9 013f
00000030: 6349 b43f 1285 0140 16dd 5ac0 dae0 bf3f
00000040: b4c8 653f 9ba4 e8bf 9d55 1c3f 0bd5 2b40
00000050: 41bf 453f 8ff7 1140 6704 65bf 5d9e 833f
00000060: ca3d 1d40 f04f 1b40

initial.denseblock1.bn1.running_var f4 [26]
0.54303104 0.9495667 1.4174796 1.5347066 0.5493184 0.66263676 0.33709657 2.8294973
0.6301147 1.5697631 0.53011125 0.11400046 0.9411836 1.5644614 4.300629 0.9719803
0.31282848 1.6002817 0.3329924 2.0770917 0.4126772 1.8991703 0.4736456 0.92213583
2.2311049 2.2831247
00000000: 1504 0b3f ce16 733f f96f b53f 4471 c43f
00000010: 21a0 0c3f 90a2 293f ec97 ac3e 7c16 3540
00000020: 324f 213f ffed c83f 5fb5 073f 1379 e93d
00000030: 69f1 703f 4540 c83f c19e 8940 b3d3 783f
00000040: 0e2b a03e 08d6 cc3f fb7d aa3e 12ef 0440
00000050: 6d4a d33e 0318 f33f ad81 f23e 1811 6c3f
00000060: 6cca 0e40 b71e 1240

initial.denseblock1.conv1.weight f4 [13, 26, 1, 1]
-0.18907073 -0.0609901 0.047778137 0.0037973365 0.10841188 -0.14485785 -0.15806365 0.078253284
-0.07899292 0.067995526 -0.18834212 -0.076996565 -0.10632926 0.00030112336 -0.122286625 0.019930102
-0.10272203 0.13506645 0.12976931 0.15196931 -0.10687573 0.13951266 -0.023121487 0.10739204
-0.0940754 0.1802663 0.02853162 0.16749863 0.103746966 -0.13759133 -0.0029582796 -0.021637285
-0.051620793 -0.16265279 0.17273176 -0.058902953 0.14300145 0.0672668 -0.18045446 -0.037487086
0.13497569 0.08710461 0.16666335 -0.15970539 -0.16197106 0.061128605 0.054250013 0.030627998
0.15531786 0.09315019 -0.05680992 0.042731334 -0.092491135 0.026547775 -0.06852973 -0.1404453
-0.06474587 -0.123525746 -0.12419974 0.17352644 0.17228997 0.08335526 -0.075428076 -0.051818565
0.18898715 -0.075251944 0.026276687 0.18115515 0.055852007 -0.17276667 0.10921447 -0.13606106
-0.05574752 0.08345074 0.021751776 0.06297709 0.08481257 0.17625932 0.11835788 -0.12769961
-0.05940874 -0.1410534 -0.06998842 0.13362332 -0.17105833 -0.16314171 -0.027890876 -0.017050382
0.18972689 0.16070771 0.044400238 -0.056338612 0.008946253 -0.00648453 -0.105344914 -0.13393797
0.10999955 0.0092229815 -0.12563704 0.13921621 -0.13690154 -0.18244062 -0.15439397 -0.1034956
-0.031097904 -0.01645832 -0.09356896 0.1444091 0.12644929 0.008886551 0.0004847593 0.07965161
0.00660272 -0.0499917 0.04015759 0.048117194 -0.10300053 -0.14641793 0.034781802 -0.019786216
0.020643843 -0.15529022 -0.14327371 -0.1933626 0.13570894 0.06029152 -0.10303938 0.05327123
-0.11306747 -0.10611372 -0.04519277 -0.14823572 -0.1760844 -0.13497548 0.031695534 0.10151518
-0.1917556 -0.1399449 0.02527312 -0.08336577 0.13174121 0.123135135 -0.05937546 0.079226665
-0.18867749 0.14693804 0.08219909 -0.15252538 0.0980119 -0.069157206 0.10615218 -0.004069432
0.004923022 -0.17160888 0.13231103 -0.015916314 0.12664641 -0.043270733 -0.06764827 -0.14481893
-0.14562371 0.01637238 0.20450372 0.10567923 0.029476887 0.0695508 0.06490046 0.08273698
0.05750235 -0.15409555 -0.049870104 -0.19924267 0.118617795 0.17633112 0.0013703736 0.0041978466
-0.037072495 0.027188616 -0.1344879 0.07516517 0.117532946 -0.18871808 -0.13927568 0.11204486
0.08355117 -0.05834007 -0.0105639305 0.13186754 0.031723566 0.009503766 -0.0395258 -0.08674546
-0.16411601 0.18456444 -0.056996845 -0.11289077 0.0633686 -0.12358361 -0.13103804 0.0013377665
-0.1258276 0.05359281 -0.062463336 0.057409316 -0.13440184 -0.028190004 -0.11744109 0.16952237
-0.033115473 0.09710974 -0.02166148 0.03870016 -0.10850625 -0.14709383 -0.10648116 -0.018142315
-0.03743163 0.02322468 -0.092229575 -0.08633032 -0.032264818 -0.17921987 -0.04478747 -0.07704917
0.16610847 0.15663037 0.061695233 -0.070876785 -0.00078035507 0.18611585 -0.20694381 0.121778436
-0.022160698 0.1619024 -0.07278201 0.084058665 -0.028793203 0.06351317 -0.12024252 -0.19473405
0.122708 -0.16509594 -0.11746743 -0.033241622 0.19910836 -0.007481397 -0.17350449 0.11208646
0.115572244 -0.1387065 -0.17928582 -0.12978303 -0.040577404 0.011224488 0.006727245 0.15242477
00000000: c29b 41be c1d0 79bd 02b3 433d bcdc 783b
00000010: 0c07 de3d 9e55 14be 70db 21be 4243 a03d
00000020: 0ac7 a1bd 3d41 8b3d c2dc 40be 60b0 9dbd
00000030: 28c3 d9bd 18e0 9d39 6971 fabd 7444 a33c
00000040: ed5f d2bd dc4e 0a3e 3fe2 043e d89d 1b3e
00000050: aae1 dabd 68dc 0e3e 4669 bdbc 5cf0 db3d
00000060: 9aaa c0bd bb97 383e 25bb e93c c384 2b3e
00000070: 4a79 d43d bee4 0cbe b2df 41bb ad40 b1bc
00000080: 5370 53bd 748e 26be 98e0 303e 3944 71bd
00000090: f96e 123e 2dc3 893d 0ec9 38be 0f8c 19bd
000000a0: 1137 0a3e e763 b23d cca9 2a3e cf89 23be
000000b0: bedb 25be fd61 7a3d 4335 5e3d 91e7 fa3c
000000c0: a50b 1f3e 87c5 be3d 85b1 68bd 0d07 2f3d
000000d0: fe6b bdbd b87a d93c 5159 8cbd e5d0 0fbe
000000e0: 7c99 84bd 11fb fcbd 6f5c febd eab0 313e
000000f0: c86c 303e 2ab6 aa3d 097a 9abd b43f 54bd
00000100: d985 413e b11d 9abd 3542 d73c bc80 393e
00000110: 13c5 643d bfe9 30be d6ab df3d 9753 0bbe
00000120: 8357 64bd 39e8 aa3d c830 b23c 22fa 803d
00000130: 36b2 ad3d 537d 343e 9e65 f23d b0c3 02be
00000140: 9456 73bd 4d70 10be 1756 8fbd 8dd4 083e
00000150: ea29 2fbe 9f0e 27be 687b e4bc 3ead 8bbc
00000160: c447 423e 9090 243e 06dd 353d 51c3 66bd
00000170: 4e93 123c 2e7c d4bb 13bf d7bd 0927 09be
00000180: 7247 e13d fd1b 173c ffa6 00be b28e 0e3e
00000190: eb2f 0cbe b7d1 3abe 7419 1ebe 80f5 d3bd
000001a0: 08c1 febc 99d3 86bc 15a1 bfbd fbdf 133e
000001b0: ec7b 013e e598 113c 4b27 fe39 6220 a33d
000001c0: a15b d83b 19c4 4cbd 497c 243d 8916 453d
000001d0: f1f1 d2bd 95ee 15be 5d77 0e3d b416 a2bc
000001e0: 471d a93c 6604 1fbe 58b6 12be d800 46be
000001f0: 49f7 0a3e 3ef4 763d 4f06 d3bd ef32 5a3d
00000200: eb8f e7bd 2652 d9bd 0e1c 39bd 1bcb 17be
00000210: 784f 34be 0337 0abe 2dd3 013d 31e7 cf3d
00000220: 945b 44be b74d 0fbe 9309 cf3c acbb aabd
00000230: 2be7 063e 462e fc3d af33 73bd 9741 a23d
00000240: ac34 41be ed76 163e ff57 a83d 9d2f 1cbe
00000250: 77ba c83d 4ba2 8dbd 5066 d93d df58 85bb
00000260: 4d51 a13b 3dba 2fbe 8b7c 073e ee62 82bc
00000270: 99af 013e a73c 31bd 2d8b 8abd 6a4b 14be
00000280: 621e 15be 5f1f 863c 6c69 513e 5a6e d83d
00000290: 8379 f13c a670 8e3d 88ea 843d 0172 a93d
000002a0: 9687 6b3d 39cb 1dbe 9844 4cbd 4506 4cbe
000002b0: e3ed f23d 2590 343e 1c9e b33a 178e 893b
000002c0: 54d9 17bd a9ba de3c 32b7 09be 32f0 993d
000002d0: 1db5 f03d 503f 41be 499e 0ebe c777 e53d
000002e0: e01c ab3d fff5 6ebd 5614 2dbc 4908 073e
000002f0: 92f0 013d afb5 1b3c cee5 21bd 9ba7 b1bd
00000300: 070e 28be 76fe 3c3e 8675 69bd 4733 e7bd
00000310: 66c7 813d 6719 fdbd d62e 06be ff57 af3a
00000320: f3d8 00be 2284 5b3d 8ed9 7fbd 0826 6b3d
00000330: a3a0 09be b9ee e6bc f484 f0bd 4697 2d3e
00000340: 17a4 07bd 79e1 c63d 6b73 b1bc 0f84 1e3d
00000350: 8638 debd c49f 16be cb12 dabd 319f 94bc
00000360: e951 19bd af41 be3c dce2 bcbd f3cd b0bd
00000370: 1d28 04bd 6a85 37be 1173 37bd f5cb 9dbd
00000380: 5718 2a3e b663 203e 24b4 7c3d d927 91bd
00000390: be90 4cba 2795 3e3e 14e9 53be f966 f93d
000003a0: 5a8a b5bc bec9 253e bc0e 95bd f326 ac3d
000003b0: b9df ebbc 3113 823d b641 f6bd 5d68 47be
000003c0: 554e fb3d e90e 29be c492 f0bd 5e28 08bd
000003d0: 10e3 4b3e 8226 f5bb 29ab 31be 968d e53d
000003e0: 24b1 ec3d 1409 0ebe b496 37be d8e5 04be
000003f0: 7e34 26bd eae6 373c 3970 dc3b 3d15 1c3e

initial.denseblock1.conv1.bias f4 [13]
-0.057206225 -0.07132779 0.14056651 0.17700566 0.071930215 0.112220876 -0.11548626 0.07985263
-0.10102294 0.040506333 0.12934761 0.18898724 -0.117187776
00000000: 1351 6abd 4e14 92bd abf0 0f3e f940 353e
00000010: 2650 933d 0fd4 e53d 0f84 ecbd c789 a33d
00000020: 1de5 cebd f8e9 253d b373 043e df85 413e
00000030: 2500 f0bd

initial.denseblock1.bn2.weight f4 [13]
0.9806472 0.9935024 0.9900624 0.99104756 0.9996549 1.0033149 0.99182314 0.98988724
1.0071691 0.99798524 0.99255776 0.99782145 0.9986337
00000000: b20b 7b3f 2c56 7e3f bb74 7d3f 4bb5 7d3f
00000010: 62e9 7f3f 9f6c 803f 1fe8 7d3f 4069 7d3f
00000020: ebea 803f f67b 7f3f 4418 7e3f 3a71 7f3f
00000030: 75a6 7f3f

initial.denseblock1.bn2.bias f4 [13]
-0.014317065 -0.0010987846 -0.0035280415 0.010120551 0.0048937243 0.005307004 0.007830767 -0.01362434
0.006368621 0.0048301117 -0.015683608 0.0028061024 -0.0065897848
00000000: 1f92 6abc 1805 90ba b736 67bb abd0 253c
00000010: 895b a03b 60e6 ad3b 9e4c 003c a038 5fbc
00000020: ddaf d03b ea45 9e3b e97a 80bc 96e6 373b
00000030: 1fef d7bb

initial.denseblock1.bn2.running_mean f4 [13]
-0.15850593 0.11530395 0.25297847 -0.19531801 -0.12952414 -0.106050156 -0.07309095 -0.09736404
-0.19948599 -0.19539821 -0.18270883 0.53501236 0.009405748
00000000: 614f 22be 7a24 ec3d 6586 813e 7201 48be
00000010: faa1 04be d330 d9bd b5b0 95bd cc66 c7bd
00000020: 0e46 4cbe 7816 48be 0618 3bbe 92f6 083f
00000030: 911a 1a3c

initial.denseblock1.bn2.running_var f4 [13]
0.0762835 0.08149455 0.03881095 0.11151768 0.0403632 0.12548096 0.06758005 0.07041398
0.09002407 0.08156731 0.051077925 0.1251825 0.2586203
00000000: 863a 9c3d 9de6 a63d 3bf8 1e3d 6263 e43d
00000010: e253 253d 157e 003e 6967 8a3d 3435 903d
00000020: 8a5e b83d c30c a73d 1637 513d d72f 003e
00000030: e169 843e

initial.denseblock1.conv2.weight f4 [39, 13, 3, 3]
0.05573206 -0.03410228 0.010041693 0.018821051 -0.0686309 -0.06316694 0.0013226483 0.018372606
0.08621303 -0.058441445 -0.0115026655 0.053409595 -6.889575e-05 -0.039981388 0.03734734 0.087696336
-0.057185616 -0.022053078 0.052515913 0.050108925 0.0805536 0.00938309 -0.014785149 -0.03755784
0.008375537 -0.07427571 -0.08883028 0.058949128 0.071085826 -0.023132518 -0.07965573 0.010907675
-0.07989941 -0.08520172 -0.072751634 -0.034752388 0.045922305 -0.02593649 0.07451754 0.07945353
0.07449597 0.072906435 0.040531896 0.06839721 0.09735195 0.0496294 0.07616011 -0.08013605
-0.024996707 -0.041196655 0.08832513 0.056803316 -0.035532467 -0.06136662 -0.0072655533 0.021754151
0.09115368 -0.0794194 -0.05856048 0.023484396 -0.0867406 0.0767342 0.07057956 0.038498245
0.02182055 -0.0488574 0.08667151 0.029872406 -0.070077255 0.018082667 -0.038801666 0.015713846
0.052246682 -0.027537325 0.05355785 0.03226846 0.06892517 -0.009362224 0.028943744 -0.026552664
0.019718664 -0.029322606 0.08214891 -0.043033592 -0.081521325 -0.0432389 0.052886482 -0.028777309
-0.0011646511 0.07657401 -0.074723504 -0.014800213 0.018132742 -0.07247625 -0.013890356 0.053651903
-0.039098434 -0.064372905 -0.010312221 0.020473387 -0.036053717 -0.0805378 -0.04352154 0.016489191
0.033433612 0.026150623 -0.034648106 0.06607897 -0.038976166 0.010726251 -0.074831136 0.018731888
-0.06269524 -0.01002729 0.06281226 0.029555487 0.020929294 -0.08350944 0.010992742 0.025763545
-0.0745292 0.015253733 0.00028700076 0.07089698 -0.05434181 0.08897194 0.09398122 -0.01564119
-0.010398269 -0.0048127775 0.058621492 -0.039332546 0.0952187 -0.08089824 -0.06920919 0.0052755084
-0.031826604 0.03176771 0.09565929 0.102360845 0.06616766 -0.038735263 0.051689945 0.094284184
0.036220077 -0.083809465 -0.031839374 -0.06977661 -0.037763983 0.06491543 0.018756483 0.0037792532
0.088046245 -0.016729642 -0.011225014 0.06297171 -0.08907083 0.031869505 0.035346575 0.016038673
0.004574757 0.05717233 0.009818117 -0.05061093 -0.054032438 -0.075965405 -0.028334934 -0.01618392
0.079681516 0.024369637 0.0497415 -0.043647654 0.011668313 -0.08609903 -0.03845049 -0.040520288
-0.022233669 -0.08813521 0.0037802667 0.090768956 0.005740337 0.017693935 0.08319836 0.0819843
0.023624249 0.013738694 -0.086269066 0.011498414 0.014847465 -0.043757163 -0.08155732 -0.038880926
-0.054457575 0.04219935 -0.08139704 0.08629437 0.086498804 0.032675177 0.035427317 0.092932776
-0.01595401 -0.05273346 -0.05353066 -0.06839004 -0.005986124 -0.027542436 0.100209974 0.051213488
-0.046333954 -0.08294545 -0.07470931 -0.06787968 0.005120839 0.024940303 0.012832592 0.019639544
0.028983869 -0.0017908775 0.03667424 -0.01013471 -0.014698948 0.057375744 0.06154497 0.08236217
0.058318805 -0.091485746 0.017966148 -0.03100238 -0.06280923 -0.09456416 -0.040456094 0.022934493
0.05354519 0.06913117 -0.010505462 -0.0422794 0.047190137 -0.03156603 0.00455955 -0.04750055
-0.015116829 -0.019069972 -0.047917116 -0.091487795 -0.033128057 -0.09105731 0.061544474 -0.03150603
-0.004114473 -0.061331335 0.03785357 -0.042186685 0.091407135 0.044321135 -0.01040614 -0.025975343
00000000: 4d47 643d d5ae 0bbd ea85 243c 9b2e 9a3c
00000010: 5b8e 8cbd ab5d 81bd b65c ad3a 2682 963c
00000020: 7590 b03d 4c60 6fbd ad75 3cbc 05c4 5a3d
00000030: 207c 90b8 86c3 23bd 86f9 183d 239a b33d
00000040: 773b 6abd a8a8 b4bc ed1a 573d 043f 4d3d
00000050: 49f9 a43d 88bb 193c 693d 72bc 40d6 19bd
00000060: 8c39 093c dd1d 98bd a6ec b5bd a474 713d
00000070: 7295 913d 6880 bdbc 8b22 a3bd 1bb6 323c
00000080: 4da2 a3bd 3d7e aebd cffe 94bd 8558 0ebd
00000090: 0719 3c3d c378 d4bc a79c 983d 88b8 a23d
000000a0: 5891 983d f84f 953d c604 263d d613 8c3d
000000b0: 7660 c73d 3348 4b3d d5f9 9b3d 5f1e a4bd
000000c0: e5c5 ccbc d3bd 28bd cee3 b43d 98aa 683d
000000d0: 7e8a 11bd 915b 7bbd e113 eebb c335 b23c
000000e0: c8ae ba3d a3a6 a2bd 1ddd 6fbd 5962 c03c
000000f0: 0ea5 b1bd d226 9d3d 048c 903d 56b0 1d3d
00000100: 03c1 b23c b21e 48bd d580 b13d fab6 f43c
00000110: aa84 8fbd 1a22 943c 7fee 1ebd 53ba 803c
00000120: 9e00 563d f595 e1bc 7a5f 5b3d ef2b 043d
00000130: a428 8d3d 0364 19bc 6e1b ed3c f984 d9bc
00000140: 0989 a13c f635 f0bc b03d a83d fe43 30bd
00000150: a7f4 a6bd 461b 31bd 7f9f 583d 64be ebbc
00000160: 35a7 98ba d6d2 9c3d a308 99bd 987c 72bc
00000170: 1e8b 943c 6e6e 94bd 6094 63bc 19c2 5b3d
00000180: ae25 20bd f1d5 83bd 97f4 28bc ceb7 a73c
00000190: 10ad 13bd 01f1 a4bd a443 32bd 5714 873c
000001a0: aff1 083d d539 d63c 2ceb 0dbd 6954 873d
000001b0: 79a5 1fbd 28bd 2f3c 1141 99bd 9e73 993c
000001c0: 5d66 80bd 8149 24bc b7a3 803d 591e f23c
000001d0: e973 ab3c ff06 abbd e71a 343c 120e d33c
000001e0: c4a2 98bd cbea 793c 9778 9639 7032 913d
000001f0: 8595 5ebd ec36 b63d 3a79 c03d f421 80bc
00000200: 805d 2abc 81b4 9dbb 171d 703d 2a1b 21bd
00000210: 0602 c33d faad a5bd 8cbd 8dbd 2cde ac3b
00000220: 9d5c 02bd dc1e 023d 05e9 c33d 90a2 d13d
00000230: e982 873d dea8 1ebd d6b8 533d 1118 c13d
00000240: 815b 143d 4ca4 abbd 016a 02bd 0ae7 8ebd
00000250: 68ae 1abd 62f2 843d 32a7 993c 59ad 773b
00000260: 9751 b43d 9a0c 89bc 1fe9 37bc 50f7 803d
00000270: c46a b6bd 9989 023d 92c7 103d 8963 833c
00000280: d8e7 953b 882d 6a3d 2bdc 203c 684d 4fbd
00000290: 1e51 5dbd c093 9bbd aa1e e8bc 2494 84bc
000002a0: 1030 a33d d5a2 c73c bebd 4b3d e2c7 32bd
000002b0: 742c 3f3c b054 b0bd 437e 1dbd 9af8 25bd
000002c0: 6223 b6bc 3c80 b4bd 5abe 773b 13e5 b93d
000002d0: 7019 bc3b dff2 903c e763 aa3d 62e7 a73d
000002e0: a487 c13c 4218 613c d6ad b0bd d863 3c3c
000002f0: c842 733c b63a 33bd 8607 a7bd 9b41 1fbd
00000300: e80e 5fbd 3ad9 2c3d 7eb3 a6bd 1abb b03d
00000310: 4926 b13d 68d6 053d 3c1c 113d 8a53 be3d
00000320: fcb1 82bc 0aff 57bd f742 5bbd 1410 8cbd
00000330: 3f27 c4bb ada0 e1bc e33a cd3d 3cc5 513d
00000340: acc8 3dbd 4edf a9bd 3201 99bd 8004 8bbd
00000350: b6cc a73b 9b4f cc3c cb3f 523c 1ce3 a03c
00000360: 946f ed3c e1bb eaba ba37 163d 0e0c 26bc
00000370: dbd3 70bc d402 6b3d 9416 7c3d 7fad a83d
00000380: b3df 6e3d e15c bbbd be2d 933c b4f8 fdbc
00000390: 20a2 80bd dbaa c1bd 4ab5 25bd 1ee1 bb3c
000003a0: 3352 5b3d a594 8d3d 1a1f 2cbc 2a2d 2dbd
000003b0: 724a 413d 624b 01bd 4768 953b f08f 42bd
000003c0: 94ac 77bc a138 9cbc bd44 44bd f45d bbbd
000003d0: 49b1 07bd 417c babd 0f16 7c3d 780c 01bd
000003e0: b3d2 86bb 9136 7bbd 580c 1b3d f2cb 2cbd
000003f0: aa33 bb3d 148a 353d 847e 2abc 3eca d4bc

initial.denseblock1.conv2.bias f4 [39]
-0.0019092194 -0.07272934 -0.006103165 -0.023061803 -0.07287818 -0.04283214 0.02292706 -0.07735014
-0.011410175 0.028541775 0.08833742 0.011901752 -0.08563952 -0.022829484 0.06931766 0.084743164
-0.080896564 0.0810801 0.0640145 -0.050843652 -0.049122993 0.057334922 -0.01630517 -0.015255323
-0.0459527 0.055775613 -0.05631789 0.074009374 -0.0047200546 0.039083708 0.087536275 0.01077512
-0.02299659 0.0495944 -0.0116222305 -0.03923463 -0.030274576 0.09200281 0.02925772
00000000: c63e faba 1ff3 94bd 0ffd c7bb 1bec bcbc
00000010: 2841 95bd c170 2fbd 88d1 bb3c c069 9ebd
00000020: bef1 3abc 71d0 e93c 40ea b43d 91ff 423c
00000030: c663 afbd e604 bbbc 6bf6 8d3d d38d ad3d
00000040: 19ad a5bd 530d a63d 091a 833d 6f41 50bd
00000050: 3135 49bd 06d8 6a3d 6b92 85bc 76f1 79bc
00000060: e638 3cbd f874 643d 96ad 66bd 3a92 973d
00000070: b0aa 9abb 3d16 203d 3846 b33d 218a 303c
00000080: 5863 bcbc 7f23 4b3d 2b6b 3ebc 7eb4 20bd
00000090: 6302 f8bc f86b bc3d e3ad ef3c

initial.denseblock2.bn1.weight f4 [65]
1.0065122 0.9935897 1.0047495 0.9954999 0.9908693 0.99634117 0.99484366 1.000796
0.9903644 0.9856591 0.986246 0.9944925 0.98969966 0.99078864 1.0052809 0.99531347
0.99355066 0.9940857 0.98757607 0.9976024 0.99556243 0.99967045 0.9859649 1.0049623
0.998287 0.9969735 1.003683 0.99323064 0.9857125 0.9963833 0.9873904 0.98681027
1.0017025 0.9862769 1.00118 0.9879022 0.9854863 0.98906016 0.9843347 0.9995107
1.0050926 0.9903712 1.0062115 0.99753916 1.0007523 1.0080371 1.0042264 0.9982684
0.99671423 0.992021 0.99627084 0.9921725 0.9958383 0.9920365 1.0048674 0.9905789
0.9974053 1.0043242 1.0049621 0.9954808 0.98592913 0.9978035 0.9808504 0.9977599
0.9868379
00000000: 64d5 803f e55b 7e3f a29b 803f 15d9 7e3f
00000010: 9ca9 7d3f 3710 7f3f 13ae 7e3f 151a 803f
00000020: 8588 7d3f 2854 7c3f 9e7a 7c3f 0f97 7e3f
00000030: f55c 7d3f 53a4 7d3f 0bad 803f ddcc 7e3f
00000040: 5659 7e3f 677c 7e3f c9d1 7c3f df62 7f3f
00000050: 2edd 7e3f 67ea 7f3f 3268 7c3f 9ba2 803f
00000060: bd8f 7f3f a839 7f3f af78 803f 5d44 7e3f
00000070: a857 7c3f fa12 7f3f 9ec5 7c3f 999f 7c3f
00000080: ca37 803f a57c 7c3f ab26 803f 29e7 7c3f
00000090: d548 7c3f 0c33 7d3f 5cfd 7b3f efdf 7f3f
000000a0: e0a6 803f f888 7d3f 8acb 803f ba5e 7f3f
000000b0: a718 803f 5c07 813f 7e8a 803f 858e 7f3f
000000c0: aa28 7f3f 17f5 7d3f 9b0b 7f3f 04ff 7d3f
000000d0: 42ef 7e3f 1bf6 7d3f 7f9f 803f 9496 7d3f
000000e0: f455 7f3f b28d 803f 99a2 803f d4d7 7e3f
000000f0: da65 7c3f 0d70 7f3f 0319 7b3f 316d 7f3f
00000100: 69a1 7c3f

initial.denseblock2.bn1.bias f4 [65]
0.006229803 -0.0017383274 0.008266841 -0.00054512685 -0.005053711 0.004386519 0.0042701936 0.008768207
-0.0041831913 -0.008469292 -0.009356053 0.0056034806 -0.0037107181 -0.008032941 0.0068333107 0.0064892005
-0.0039610565 -0.0025670833 -0.012840354 0.0004670756 0.0011688591 -0.0008069876 -0.0067663593 0.0066120797
-0.00034416284 -0.0019705228 0.0077144857 0.0047222306 -0.007875302 -0.008089649 0.00042415078 -0.008856206
0.006774873 0.0010649686 0.003907031 -0.0066498597 -0.010303442 0.007237249 0.0049439506 0.014436359
0.010152839 -0.0049806554 0.007312998 0.0031194163 0.0052741333 0.008455769 0.0051813824 0.0009846605
-0.0021886595 -0.004373168 0.004767337 -0.0035008865 0.006722759 -0.0035062898 0.007157572 -0.011892964
0.0018882235 0.004708562 0.008492619 -0.0009892915 -0.0023241837 0.0007165417 -0.008523691 0.00037206276
-0.0059845457
00000000: 6023 cc3b 97d8 e3ba a571 073c d8e6 0eba
00000010: 9a99 a5bb cabc 8f3b fbec 8b3b 87a8 0f3c
00000020: 2713 89bb c9c2 0abc 214a 19bc 679d b73b
00000030: 852f 73bb 999c 03bc f7e9 df3b 5ca3 d43b
00000040: c0cb 81bb 833c 28bb 5960 52bc d3e1 f439
00000050: 6734 993a 058c 53ba 56b8 ddbb 25aa d83b
00000060: c170 b4b9 e323 01bb ccc9 fc3b f1bc 9a3b
00000070: 6907 01bc 728a 04bc 8e60 de39 9f19 11bc
00000080: c1ff dd3b 6b96 8b3a 8d06 803b 11e7 d9bb
00000090: c5cf 28bc 7226 ed3b dd00 a23b 7a86 6c3c
000000a0: 1858 263c c434 a3bb e0a1 ef3b 1f6f 4c3b
000000b0: a3d2 ac3b 118a 0a3c 96c8 a93b b90f 813a
000000c0: 9d6f 0fbb cb4c 8fbb 5237 9c3b 216f 65bb
000000d0: 974a dc3b c8c9 65bb 118a ea3b b5da 42bc
000000e0: 447e f73a 484a 9a3b a024 0b3c 1dab 81ba
000000f0: 5551 18bb 4dd6 3b3a f4a6 0bbc 6b11 c339
00000100: 021a c4bb

initial.denseblock2.bn1.running_mean f4 [65]
0.14497375 0.07113329 -0.17962849 0.3152403 -0.33571425 0.11544486 -0.10388783 -0.27878332
-0.22286186 0.054576106 0.021951767 -0.33269766 -0.41662169 0.3710017 -0.33090904 -0.31174406
-0.23963137 -0.15370527 0.16635108 0.46025437 -0.19990814 0.10442868 -0.01942236 0.21977781
-0.20352218 0.01316875 -0.17401083 0.037093386 -0.05390785 0.15598823 -0.050769404 0.47401065
-0.13828573 -0.08117113 0.10846261 -0.07021109 -0.047755778 -0.15411925 -0.19561924 -0.9114822
1.5322689 2.1673248 2.1838038 1.0865749 1.251562 0.77367026 2.8585591 -1.1391141
2.1711082 1.0713199 0.51236725 1.4325963 2.0624516 -3.4854326 1.5223864 0.90915406
-1.8573049 0.62305784 2.7310545 0.7902156 2.324543 -0.9114018 1.0506771 2.5021737
2.47246
00000000: 0074 143e 55ae 913d 88f0 37be 2d67 a13e
00000010: bde2 abbe 5b6e ec3d 25c3 d4bd b0bc 8ebe
00000020: e635 64be 328b 5f3d 31d4 b33c 5957 aabe
00000030: 704f d5be eff3 bd3e e96c a9be eb9c 9fbe
00000040: ed61 75be ea64 1dbe f057 2a3e 76a6 eb3e
00000050: b8b4 4cbe b4de d53d a41b 9fbc 6f0d 613e
00000060: 1e68 50be bec1 573c e52f 32be 3cef 173d
00000070: 7ace 5cbd 61bb 1f3e 94f3 4fbd 86b1 f23e
00000080: c69a 0dbe 0d3d a6bd a521 de3d d5ca 8fbd
00000090: 909b 43bd 70d1 1dbe 6950 48be e656 69bf
000000a0: 6321 c43f 73b5 0a40 71c3 0b40 e314 8b3f
000000b0: 2f33 a03f 410f 463f a2f2 3640 7ece 91bf
000000c0: 70f3 0a40 0321 893f 802a 033f 515f b73f
000000d0: 35ff 0340 5411 5fc0 8fdd c23f 52be 683f
000000e0: 2bbc edbf b880 1f3f 99c9 2e40 924b 4a3f
000000f0: 50c5 1440 a151 69bf 967c 863f 9d23 2040
00000100: c93c 1e40

initial.denseblock2.bn1.running_var f4 [65]
0.21823657 0.15197648 0.12278201 0.08781684 0.12863156 0.11490043 0.10811939 0.22038805
0.1423117 0.049536724 0.06106617 0.076951995 0.123687506 0.14692333 0.21057597 0.18413834
0.10428525 0.29020426 0.070306145 0.17999038 0.19300508 0.12015289 0.18659644 0.17499349
0.08019417 0.12598747 0.11980347 0.095494285 0.12858993 0.21292648 0.25906458 0.19555591
0.15240549 0.07595688 0.15644975 0.11625918 0.046133634 0.08793384 0.13810629 0.47604945
0.8696929 1.2933795 1.4176323 0.4864809 0.602871 0.2842936 2.668815 0.57477474
1.4801031 0.42177418 0.09420746 0.8407049 1.4454682 4.00359 0.9023713 0.26868603
1.4527116 0.28842986 1.9203825 0.36318275 1.7458305 0.40355527 0.8746335 2.0694215
2.1416888
00000000: 6879 5f3e b99f 1b3e 2275 fb3d 51d9 b33d
00000010: feb7 033e eb50 eb3d b36d dd3d 68ad 613e
00000020: 29ba 113e 05e7 4a3d 8520 7a3d 0299 9d3d
00000030: e04f fd3d 1273 163e 3aa1 573e c38e 3c3e
00000040: 8193 d53d a795 943e abfc 8f3d 664f 383e
00000050: 20a3 453e b812 f63d 2313 3f3e 7e31 333e
00000060: d73c a43d dc02 013e 865b f53d 8292 c33d
00000070: 14ad 033e 6609 5a3e 1da4 843e cf3f 483e
00000080: 2f10 1c3e 488f 9b3d 5d34 203e 4b19 ee3d
00000090: 9ff6 3c3d a816 b43d bc6b 0d3e c1bc f33e
000000a0: 32a4 5e3f 768d a53f fa74 b53f 0614 f93e
000000b0: c155 1a3f ee8e 913e ddcd 2a40 7024 133f
000000c0: 0574 bd3f c9f2 d73e d7ef c03d 7038 573f
000000d0: 1a05 b93f 691d 8040 ce01 673f 3791 893e
000000e0: 74f2 b93f 14ad 933e 18cf f53f 17f3 b93e
000000f0: 6077 df3f cc9e ce3e fbe7 5f3f 6771 0440
00000100: 6e11 0940

initial.denseblock2.conv1.weight f4 [26, 65, 1, 1]
-0.03589894 -0.053056553 0.030036176 -0.046734113 -0.08246097 0.092392325 0.030319678 0.002855167
-0.039318863 -0.11412552 -0.011671328 0.029272527 -0.08327775 -0.045657247 0.11927438 -0.10440838
-0.096770965 0.04467814 0.067985624 0.05939618 -0.070247315 0.047580943 -0.08993776 -0.08443469
0.025316473 -0.046329685 0.110347584 -0.05177602 -0.09558896 0.00010494302 -0.046247117 -0.111418486
0.006229833 0.0061897035 -0.12351014 0.0632864 0.1031414 0.035057735 -0.11188149 -0.04293186
-0.0034568482 -0.061745565 -0.11589271 0.052613404 -0.01621693 0.09307913 -0.08886827 0.032012496
-0.06896512 0.02895222 0.07258555 -0.09085668 -0.1107969 0.071096115 0.13606568 -0.0184963
-0.052549392 -0.0709601 0.05834929 0.033173304 0.09025796 -0.03338613 -0.115498155 0.0052951234
-0.07471924 -0.053189926 0.058807768 -0.057265326 0.018536346 0.04421306 0.09506913 0.055212602
0.054490913 -0.013983211 0.0055696443 -0.100972824 0.05924425 -0.065009266 0.11611023 0.11865121
0.11139953 -0.0047324644 -0.003526398 0.06992205 -0.06322515 -0.080114566 -0.103279226 -0.06506971
0.06078008 0.022011489 -0.062203236 0.083038285 0.034905467 0.033709392 -0.08192607 -0.002043454
-0.019317571 -0.10187106 0.12055351 -0.00897732 0.046624906 0.06490222 0.09283469 0.085583724
0.0446088 -0.11921513 0.025343267 -0.095531546 -0.069241464 -0.09379402 0.023749674 -0.11794303
0.111750364 0.06871839 0.089057475 -0.020073384 0.036336415 -0.10727888 -0.11623572 -0.085845016
0.07454871 0.11771414 -0.08227463 -0.0852545 0.030381422 0.09689192 0.08259785 0.033078305
-0.0066899317 0.05865138 -0.04794125 0.042981543 0.024470622 0.030196736 -0.090808325 -0.02167117
0.09626378 0.023785666 -0.0196101 0.011434108 0.057281613 -0.10431817 0.026018703 0.11252956
0.02331517 -0.09648965 0.0044564153 -0.014978295 -0.07886188 0.011647139 0.12966704 0.03393617
0.09315866 -0.039244387 -0.09866629 -0.08109991 -0.012105247 0.09266958 -0.06534077 0.023598872
0.068553746 -0.10188165 0.108931705 0.0063057784 -0.11499042 -0.014648741 -0.06963045 0.09014964
0.06462566 0.015735017 -0.07637297 0.055054877 -0.107962295 -0.10644457 0.03557451 0.11034005
0.004769734 -0.06931678 -0.07144664 0.012203264 0.0142677175 -0.034589265 0.108220674 0.08137183
0.06378472 -0.11759521 0.09293573 -0.09910483 0.045520924 -0.080067575 0.03465606 0.106979355
-0.053262834 0.030941522 -0.026325893 -0.014961316 -0.03918312 0.04225218 0.103978135 0.08163449
0.09697458 -0.039275963 -0.10800331 -0.11741774 0.07093111 -0.11101448 0.10495908 -0.084967054
-0.104331434 -0.116178125 -0.08793069 0.013608489 0.060314763 0.10792536 0.009204493 0.04300874
-0.05124339 -0.038468193 -0.03724762 0.04246397 -0.101220556 -0.03978068 -0.011241252 0.10397686
-0.044295147 -0.054700885 0.057504226 0.137459 0.10672259 0.0030809909 -0.092544936 -0.07862275
-0.057104096 0.058701064 -0.051765762 0.12147241 -0.040675446 0.054460205 0.06779639 0.035412204
-0.058171846 0.035956074 0.034059983 -0.0167959 -0.022107655 -0.07297252 0.00901189 0.068860136
-0.10206734 -0.13256536 0.1218982 0.063131765 0.09621107 0.019922152 0.13927606 -0.10903766
00000000: c40a 13bd d451 59bd 6d0e f63c 456c 3fbd
00000010: 4ce1 a8bd 3038 bd3d f960 f83c c11d 3b3b
00000020: d10c 21bd a4ba e9bd 1939 3fbc f0cc ef3c
00000030: 868d aabd 1803 3bbd 2046 f43d 10d4 d5bd
00000040: db2f c6bd 6d00 373d 0c3c 8b3d 6949 733d
00000050: d3dd 8fbd 3ce4 423d 4a31 b8bd 18ec acbd
00000060: 7e64 cf3c 32c4 3dbd eafd e13d 1813 54bd
00000070: 25c4 c3bd db14 dc38 9e6d 3dbd 602f e4bd
00000080: a023 cc3b ffd2 ca3b e2f2 fcbd 4d9c 813d
00000090: cc3b d33d b398 0f3d 1f22 e5bd 51d9 2fbd
000000a0: 4a8c 62bb ebe8 7cbd 2859 edbd 2781 573d
000000b0: 5ed9 84bc 45a0 be3d 9100 b6bd 891f 033d
000000c0: 963d 8dbd 352d ed3c bca7 943d 1113 babd
000000d0: 7ce9 e2bd d79a 913d cd54 0b3e 8d85 97bc
000000e0: 083e 57bd 8753 91bd aaff 6e3d bbe0 073d
000000f0: 2ad9 b83d e5bf 08bd 4c8a ecbd b782 ad3b
00000100: 6706 99bd aedd 59bd 6ae0 703d 0c8f 6abd
00000110: 89d9 973c c118 353d 9bb3 c23d 9c26 623d
00000120: dd31 5f3d d619 65bc 9081 b63b d7ca cebd
00000130: 19aa 723d 9423 85bd 33cb ed3d 68ff f23d
00000140: 7025 e43d ca12 9bbb 241b 67bb 4b33 8f3d
00000150: 307c 81bd 1b13 a4bd 0f84 d3bd 4543 85bd
00000160: 88f4 783d 7051 b43c d2c8 7ebd fa0f aa3d
00000170: 09f9 0e3d dc12 0a3d dbc8 a7bd 78eb 05bb
00000180: e23f 9ebc c6a1 d0bd c2e4 f63d 9c15 13bc
00000190: c2f9 3e3d 75eb 843d 1d20 be3d 8546 af3d
000001a0: b8b7 363d 1027 f4bd af9c cf3c 0ba6 c3bd
000001b0: 78ce 8dbd 1417 c0bd ad8e c23c 1e8c f1bd
000001c0: 60dd e43d 3abc 8c3d c463 b63d f070 a4bc
000001d0: 7ed5 143d 08b5 dbbd fe0c eebd 83cf afbd
000001e0: feac 983d 1c14 f13d 9a7f a8bd e999 aebd
000001f0: 76e2 f83c 456f c63d 1029 a93d 1e7d 073d
00000200: 3737 dbbb 6e3c 703d 0b5e 44bd 6a0d 303d
00000210: 9d76 c83c 255f f73c b7f9 b9bd bd87 b1bc
00000220: f225 c53d 28da c23c 5ca5 a0bc 2056 3b3c
00000230: 20a0 6a3d c4a4 d5bd 2d25 d53c e675 e63d
00000240: 75ff be3c 5e9c c5bd 1f07 923b 8667 75bc
00000250: 5682 a1bd a4d3 3e3c 70c7 043e a700 0b3d
00000260: f8c9 be3d b9be 20bd 8d11 cabd b617 a6bd
00000270: 1655 46bc 8cc9 bd3d 62d1 85bd 6c52 c13c
00000280: e865 8c3d 54a7 d0bd 9617 df3d b4a0 ce3b
00000290: 1980 ebbd 4601 70bc 699a 8ebd 60a0 b83d
000002a0: 755a 843d b9e6 803c 6f69 9cbd 3981 613d
000002b0: 561b ddbd 9cff d9bd 94b6 113d f7f9 e13d
000002c0: 6e4b 9c3b f5f5 8dbd 9e52 92bd 33f0 473c
000002d0: 25c3 693c 79ad 0dbd cda2 dd3d 46a6 a63d
000002e0: 90a1 823d c2d5 f0bd 1755 be3d 79f7 cabd
000002f0: 2674 3a3d 78fa a3bd 83f3 0d3d fe17 db3d
00000300: 212a 5abd 1379 fd3c 66a9 d7bc 4f20 75bc
00000310: 7b7e 20bd 9f10 2d3d 7df2 d43d fc2f a73d
00000320: 9c9a c63d d5df 20bd d730 ddbd b678 f0bd
00000330: 5444 913d 8f5b e3bd c9f4 d63d 3503 aebd
00000340: b8ab d5bd ccee edbd 0115 b4bd 24f6 5e3c
00000350: 9d0c 773d f907 dd3d 71ce 163c ef29 303d
00000360: 97e4 51bd d390 1dbd f690 18bd b3ee 2d3d
00000370: b94c cfbd 11f1 22bd 3a2d 38bc d2f1 d43d
00000380: d46e 35bd 090e 60bd 8d89 6b3d 0dc2 0c3e
00000390: 6091 da3d 73ea 493b 3388 bdbd f704 a1bd
000003a0: fce5 69bd 8770 703d 5608 54bd 87c6 f83d
000003b0: 4c9b 26bd aa11 5f3d d5d8 8a3d 630c 113d
000003c0: 9a45 6ebd ad46 133d 7b82 0b3d 8e97 89bc
000003d0: 1d1b b5bc 9e72 95bd 9ba6 133c 8b06 8d3d
000003e0: ae08 d1bd 37bf 07be c3a5 f93d 3a4b 813d
000003f0: 4f0a c53d c833 a33c 629e 0e3e 234f dfbd

initial.denseblock2.conv1.bias f4 [26]
0.030070813 -0.037935648 -0.08772175 0.11425511 -0.053681467 0.035133116 -0.0804534 0.11647849
-0.1116359 0.07477598 -0.03307753 0.12358906 0.04675086 0.028356392 0.115873694 0.041424956
0.055052407 -0.09255638 0.030155051 0.010886556 0.09318323 0.06529215 0.085771106 0.06969612
0.08394189 0.10477503
00000000: 1157 f63c 6962 1bbd 76a7 b3bd 95fe e93d
00000010: 19e1 5bbd bee7 0f3d c1c4 a4bd 468c ee3d
00000020: 5da1 e4bd 2624 993d 4e7c 07bd 431c fd3d
00000030: d47d 3f3d aa4b e83c 304f ed3d 37ad 293d
00000040: a27e 613d 338e bdbd ba07 f73c 865d 323c
00000050: d9d6 be3d e4b7 853d c3a8 af3d d7bc 8e3d
00000060: bae9 ab3d 4a94 d63d

initial.denseblock2.bn2.weight f4 [26]
0.9846766 0.984378 0.98747265 1.0003164 1.00034 0.9887097 0.98921466 1.0080177
0.98656774 1.0068917 0.9955232 0.99646986 0.9948035 0.99932265 1.0029213 1.0018765
0.9879595 0.98951817 0.98696536 1.0045539 0.9894273 0.99710846 0.9967565 0.9967151
0.99542564 1.004675
00000000: c413 7c3f 3200 7c3f 02cb 7c3f 5e0a 803f
00000010: 240b 803f 141c 7d3f 2c3d 7d3f b906 813f
00000020: b48f 7c3f d4e1 803f 9cda 7e3f a618 7f3f
00000030: 71ab 7e3f 9cd3 7f3f ba5f 803f 7d3d 803f
00000040: eaea 7c3f 1051 7d3f c3a9 7c3f 3995 803f
00000050: 1c4b 7d3f 8042 7f3f 6f2b 7f3f b928 7f3f
00000060: 37d4 7e3f 3199 803f

initial.denseblock2.bn2.bias f4 [26]
-0.00519426 -0.0034733727 -0.007911294 0.0012933183 0.0013337634 -0.008412443 -0.0055159125 0.0075151627
-0.00687386 0.009121444 -0.003037176 0.007831484 0.0044149267 0.0026268724 0.0013584658 0.0063030655
-0.006849726 0.0032008556 -0.010154647 0.005390131 -0.007911803 -0.0005041453 8.241815e-05 -1.5513262e-05
-0.0045626853 0.006330764
00000000: 9c34 aabb 86a1 63bb 5f9e 01bc 9084 a93a
00000010: acd1 ae3a 58d4 09bc d4be b4bb c141 f63b
00000020: 1e3e e1bb 1c72 153c 5c0b 47bb a04f 003c
00000030: 17ab 903b 9b27 2c3b 8c0e b23a f289 ce3b
00000040: ab73 e0bb 72c5 513b ad5f 26bc b29f b03b
00000050: 82a0 01bc 9e28 04ba e8d7 ac38 7a22 82b7
00000060: 9482 95bb 4c72 cf3b

initial.denseblock2.bn2.running_mean f4 [26]
-0.36375144 0.13645515 -0.077042654 0.081589155 0.16228312 0.05141746 -0.022264345 0.080529466
-0.5044486 0.104272336 0.3292251 -0.10030679 0.0039765663 -0.54177 -0.17412257 0.1273782
0.050616916 -0.18453921 0.33533835 0.24226384 0.105445296 0.18506466 -0.047393676 0.07811757
-0.2679266 0.17856085
00000000: a13d babe e6ba 0b3e 8ac8 9dbd 3718 a73d
00000010: 8c2d 263e 1d9b 523d b763 b6bc a2ec a43d
00000020: 8b23 01bf bc8c d53d 3190 a83e a56d cdbd
00000030: db4d 823b 70b1 0abf 304d 32be 6e6f 023e
00000040: af53 4f3d d9f7 3cbe 78b1 ab3e 0314 783e
00000050: b4f3 d73d 9781 3d3e df1f 42bd 1bfc 9f3d
00000060: ad2d 89be a8d8 363e

initial.denseblock2.bn2.running_var f4 [26]
0.09507327 0.088712536 0.16672862 0.24361707 0.17669493 0.09315389 0.060441572 0.12307268
0.0728616 0.120776415 0.1061867 0.27038237 0.11321093 0.08550358 0.10922182 0.11406778
0.07214883 0.062128995 0.06030925 0.12723485 0.05536151 0.35182658 0.19178565 0.071067855
0.062545545 0.31854936
00000000: c6b5 c23d ebae b53d e8ba 2a3e c176 793e
00000010: 84ef 343e 77c7 be3d 9591 773d 870d fc3d
00000020: 7638 953d a059 f73d 6a78 d93d 8f6f 8a3e
00000030: 22db e73d 801c af3d b1af df3d 5e9c e93d
00000040: c4c2 933d f97a 7e3d d506 773d da49 023e
00000050: c0c2 623d 9d22 b43e 7563 443e 068c 913d
00000060: e117 803d e718 a33e

initial.denseblock2.conv2.weight f4 [39, 26, 3, 3]
-0.029666254 0.01272972 -0.05642021 -0.021405794 0.010887177 -0.0029381213 0.018664401 0.050910998
-0.05173758 0.037990417 -0.07271917 0.037455548 0.05197251 0.020736897 -0.017151311 0.033446707
-0.05666107 -0.063377425 0.04418882 -0.025227962 0.05856006 -0.0043250453 -0.06432417 0.052025594
0.017066695 -0.0077904053 -0.002250161 -0.07283943 -0.05268678 -0.025349272 0.038158476 -0.030948399
0.0034916215 0.05289284 -0.035097584 -0.040946975 -0.071333684 0.015223576 0.029827474 -0.001145129
0.0050355447 0.024930537 0.041174192 0.002958622 -0.020020459 -0.006038558 -0.049883004 -0.0033946577
-0.0022743477 -0.012110982 -0.035682753 0.006086929 0.018429527 0.004812573 -0.061350457 -0.04936992
0.040752545 0.036451645 -0.044905614 -0.028889755 0.040899422 0.037233938 0.020902183 0.011632911
0.012384919 -0.02102237 -0.018538477 -0.06097047 -0.017029285 -0.01241303 -0.019053396 -0.077982746
-0.03203759 0.04323553 0.031914704 0.024539713 0.004210847 -0.0027372416 -0.05450046 0.058745317
0.06131436 -0.04962436 -0.05265368 -0.073775895 0.027969021 0.029057542 -0.07527785 -0.055684578
-0.06270812 0.017575443 0.021735845 -0.009377145 0.05623824 -0.006631879 0.071991324 -0.05345052
-0.024410026 -0.0008771365 -0.048598044 0.06233386 -0.03621157 0.030662207 0.06430765 0.026230155
0.054955784 0.035253998 0.055478085 -0.0025762396 -0.029417384 -0.045964845 0.052216392 0.018807953
-0.01608939 -0.037282977 0.060163133 -0.028074747 -0.0140859615 0.048301212 -0.01977892 0.038898353
-0.0035864408 -0.03557784 -0.035839822 -0.03552955 -0.057906494 -0.06208744 -0.055809133 -0.054475278
0.061397564 0.069313414 0.027824111 0.024440328 -0.028010081 0.04181293 0.059788074 -0.014100847
0.069214314 -0.05367662 -0.05003688 -0.03929347 0.034216557 -0.00021258311 0.007411396 0.027123647
-0.038607772 0.03273812 -0.054973666 0.030663136 0.014624007 0.046012186 -0.04346103 -0.01277708
0.050959483 0.0021688475 0.03297148 0.046242483 -0.04724987 -0.052741747 -0.055952296 0.025427448
-0.021462282 0.06166822 0.0075519746 -0.0034751224 0.022957837 0.041866925 -0.005984042 0.038493793
0.035003714 -0.043481663 -0.02892067 0.004787438 -0.02184247 -0.032376632 -0.011321115 0.036472432
0.04559665 -0.048677232 -0.06596995 0.008704137 -0.039695024 -0.013814748 0.022846289 0.007270688
0.045109697 -0.057806075 -0.035416786 -0.058346033 -0.057204653 -0.05152564 0.02954729 -0.041672237
0.049302626 -0.058697637 0.045450598 -0.07626937 0.006384827 -0.07086425 -0.0628036 -0.008446361
0.04412432 -0.007193394 -0.03739988 0.023961162 -0.0028581277 0.01943089 -0.05105569 0.018815152
0.035646576 -0.017542059 0.053501982 -0.011582113 0.039249416 -0.031426787 -0.05415697 0.03095527
-0.028618688 0.013683035 0.029161794 -0.049474258 -0.03234778 -0.058752917 0.020557078 0.010545359
0.036550917 -0.0047069876 -0.057805087 -0.07332769 -0.058500137 0.02336253 -0.027608957 -0.026378537
-0.031180715 -0.011592071 -0.06337826 0.03673816 0.010928506 0.013222845 0.011277425 -0.008580994
0.02865601 0.051601358 0.058775663 -0.062268443 0.037167057 0.049251094 -0.00686938 -0.024361016
-0.051409453 0.025281677 -0.060674615 -0.06060133 0.030557998 -0.0076288325 -0.007790406 -0.049866352
00000000: a506 f3bc 5190 503c e118 67bd 345b afbc
00000010: 2160 323c 7f8d 40bb 16e6 983c 0d88 503d
00000020: c9ea 53bd d79b 1b3d caed 94bd fd6a 193d
00000030: 20e1 543d 6de0 a93c e880 8cbc 6aff 083d
00000040: 7015 68bd 06cc 81bd 56ff 343d dfaa cebc
00000050: acdc 6f3d 1cb9 8dbb 64bc 83bd ca18 553d
00000060: 74cf 8b3c a846 ffbb 7077 13bb d72c 95bd
00000070: 18ce 57bd 47a9 cfbc 104c 1c3d 7f87 fdbc
00000080: b0d3 643b 2aa6 583d 7cc2 0fbd 04b8 27bd
00000090: 6517 92bd 4e6c 793c bf58 f43c 2718 96ba
000000a0: 3601 a53b 203b cc3c 45a6 283d 71e5 413b
000000b0: f201 a4bc 19df c5bb 1f52 4cbd e878 5ebb
000000c0: 390d 15bb 246d 46bc 1428 12bd dc74 c73b
000000d0: 85f9 963c cab2 9d3b 9e4a 7bbd 1d38 4abd
000000e0: 24ec 263d 524e 153d f3ee 37bd 35aa ecbc
000000f0: 2786 273d 9d82 183d 0e3b ab3c f797 3e3c
00000100: 1eea 4a3c 1b37 acbc 01de 97bc 2cbc 79bd
00000110: 0081 8bbc 0560 4bbc de15 9cbc 6bb5 9fbd
00000120: d939 03bd bd17 313d feb8 023d 8207 c93c
00000130: 25fb 893b 4b63 33bb e03b 5fbd ee9e 703d
00000140: c424 7b3d ea42 4bbd 63ab 57bd d117 97bd
00000150: 4a1f e53c 150a ee3c 462b 9abd 8315 64bd
00000160: 1d6d 80bd 60fa 8f3c 5f0f b23c 99a2 19bc
00000170: 125a 663d 3c50 d9bb 3070 933d efee 5abd
00000180: 89f7 c7bc a2ef 65ba be0e 47bd ca51 7f3d
00000190: 9552 14bd 4f2f fb3c bbb3 833d 9fe0 d63c
000001a0: 5119 613d 7f66 103d fd3c 633d 21d6 28bb
000001b0: bafc f0bc a245 3cbd dbe0 553d 2313 9a3c
000001c0: e5cd 83bc 09b6 18bd 9e6d 763d 03fd e5bc
000001d0: cec8 66bc 7ed7 453d 6707 a2bc e153 1f3d
000001e0: 7e0a 6bbb 12ba 11bd c7cc 12bd 6f87 11bd
000001f0: 5c2f 6dbd 664f 7ebd 1e98 64bd 7821 5fbd
00000200: 037c 7b3d 31f4 8d3d 64ef e33c 1537 c83c
00000210: 6675 e5bc 0944 2b3d 57e4 743d 3d07 67bc
00000220: 3cc0 8d3d 04dc 5bbd 79f3 4cbd 31f2 20bd
00000230: a926 0c3d d8e8 5eb9 4cdb f23b 6932 de3c
00000240: 2f23 1ebd 6818 063d 112c 61bd 4231 fb3c
00000250: 8899 6f3c 4677 3c3d 3104 32bd f556 51bc
00000260: e4ba 503d 3923 0e3b 1a0d 073d c268 3d3d
00000270: 1489 41bd bb07 58bd 3c2e 65bd 394d d03c
00000280: abd1 afbc d197 7c3d 8e76 f73b e1be 63bb
00000290: 1312 bc3c a77c 2b3d c815 c4bb abab 1d3d
000002a0: 0e60 0f3d d419 32bd 0aeb ecbc f1df 9c3b
000002b0: fbee b2bc 5c9d 04bd 337c 39bc 1e64 153d
000002c0: 8ec3 3a3d c761 47bd 411b 87bd cc9b 0e3c
000002d0: 4097 22bd 4157 62bc 2428 bb3c f43e ee3b
000002e0: f2c4 383d 10c6 6cbd 3111 11bd 40fc 6ebd
000002f0: 6d4f 6abd 8d0c 53bd 290d f23c 82b0 2abd
00000300: 8df1 493d ef6c 70bd 682a 3a3d 1e33 9cbd
00000310: d037 d13b 4721 91bd 2d9f 80bd 9b62 0abc
00000320: b4bb 343d 90b6 ebbb 9e30 19bd 334a c43c
00000330: 6d4f 3bbb 882d 9f3c c51f 51bd 3c22 9a3c
00000340: 2502 123d 5db4 8fbc e524 5b3d e7c2 3dbc
00000350: ffc3 203d 60b9 00bd b3d3 5dbd e895 fd3c
00000360: bd71 eabc cf2e 603c b7e4 ee3c 85a5 4abd
00000370: 1b7f 04bd e6a6 70bd 5167 a83c 71c6 2c3c
00000380: 6ab6 153d 133d 9abb 07c5 6cbd d42c 96bd
00000390: d79d 6fbd c762 bf3c 2e2c e2bc cd17 d8bc
000003a0: b36e ffbc abec 3dbc 76cc 81bd c17a 163d
000003b0: 7a0d 333c a2a4 583c f3c4 383c 4c97 0cbc
000003c0: 02c0 ea3c f25b 533d c0be 703d 320d 7fbd
000003d0: 7c3c 183d 84bb 493d 8918 e1bb c190 c7bc
000003e0: b892 52bd 851b cf3c f285 78bd 1a39 78bd
000003f0: c454 fa3c 49fb f9bb a946 ffbb a940 4cbd

initial.denseblock2.conv2.bias f4 [39]
0.016292773 0.0137896305 0.048379824 0.017502379 0.03191955 -0.037145767 0.019459317 -0.026581883
-0.025705347 0.0031970076 -0.06512458 0.052675832 -0.03109384 0.02149587 0.017344518 -0.01625819
-0.0043285647 -0.006118262 -0.047219705 -0.016131759 -0.05630256 0.018660756 0.03799687 -0.062434264
-0.024039134 0.010341069 0.033265587 0.050974626 -0.05059022 -0.0059572095 0.0027459997 0.02266023
-0.0056300117 0.03158186 0.020769473 -0.057989683 0.009712798 0.020435255 -0.06388995
00000000: 6c78 853c e7ed 613c ec29 463d 2661 8f3c
00000010: 13be 023d 2926 18bd 2569 9f3c 40c2 d9bc
00000020: 0594 d2bc e384 513b 0960 85bd 9dc2 573d
00000030: 82b8 febc 1b18 b03c 1716 8e3c e52f 85bc
00000040: a2d6 8dbb b47b c8bb 7369 41bd c026 84bc
00000050: 839d 66bd 71de 983c 9ba2 1b3d 12bb 7fbd
00000060: b8ed c4bc 966d 293c 7f41 083d c5ca 503d
00000070: b137 4fbd b234 c3bb 3bf6 333b f2a1 b93c
00000080: f67b b8bb fb5b 013d be24 aa3c 9786 6dbd
00000090: 6d22 1f3c d667 a73c bcd8 82bd

initial.denseblock3.bn1.weight f4 [104]
0.99291795 0.99071246 1.0081642 0.9883221 0.9936468 1.0003812 1.0010533 1.004198
0.9938909 0.9973146 0.9955488 0.9880257 0.99175155 1.0026366 1.0052651 0.985449
1.0006099 1.0042356 0.9958034 0.9994244 0.99982136 1.0017436 0.9860851 1.001072
0.9830909 0.9976454 0.99671537 0.99707323 0.994269 1.0066177 0.99180883 0.99854726
0.996267 0.9845123 1.0066448 0.9907863 0.99668366 0.98881644 0.99203205 0.9966006
0.9916081 0.99556637 0.9859658 0.9901273 1.0010405 1.0073065 0.99475855 1.0027841
0.9903419 1.0008554 0.9918163 0.99997866 0.9905194 0.99822086 0.98866093 1.0050223
0.99007756 0.98708504 0.9919463 0.99807054 0.9910385 0.9977153 1.001602 0.99394965
0.98856336 0.9836001 0.99662113 0.9976265 1.0047435 0.9981262 0.9905263 0.9954523
0.98524135 0.9960369 0.9908725 0.9934205 0.99348605 0.9907241 0.9892948 0.9995012
0.99546564 0.9895323 0.99564 0.9945894 0.989922 0.9808944 0.98630786 0.9961292
0.99345016 0.9939075 0.99875426 0.9963967 0.99735177 0.99462646 0.99086744 0.99789953
0.99960595 0.993719 1.004505 0.97986466 1.0039871 1.0027317 0.9961057 0.9998933
00000000: df2f 7e3f 559f 7d3f 860b 813f ad02 7d3f
00000010: a35f 7e3f 7e0c 803f 8422 803f 8f89 803f
00000020: a26f 7e3f 0250 7f3f 49dc 7e3f 41ef 7c3f
00000030: 6ee3 7d3f 6556 803f 87ac 803f 6346 7c3f
00000040: fc13 803f cb8a 803f f9ec 7e3f 47da 7f3f
00000050: 4bf4 7f3f 2239 803f 1370 7c3f 2123 803f
00000060: d8ab 7b3f b065 7f3f bd28 7f3f 3140 7f3f
00000070: 6a88 7e3f d9d8 803f 2fe7 7d3f cba0 7f3f
00000080: 5b0b 7f3f 0009 7c3f bdd9 803f 2ca4 7d3f
00000090: a926 7f3f 1323 7d3f d0f5 7d3f 3821 7f3f
000000a0: 07da 7d3f 70dd 7e3f 4168 7c3f fc78 7d3f
000000b0: 1822 803f 6bef 803f 7fa8 7e3f 3b5b 803f
000000c0: 0c87 7d3f 081c 803f ace7 7d3f 9afe 7f3f
000000d0: ae92 7d3f 678b 7f3f e218 7d3f 92a4 803f
000000e0: b975 7d3f 9bb1 7c3f 31f0 7d3f 8d81 7f3f
000000f0: b3b4 7d3f 456a 7f3f 7f34 803f 7c73 7e3f
00000100: 7d12 7d3f 37cd 7b3f 9022 7f3f 7364 7f3f
00000110: 6f9b 803f 3385 7f3f 2293 7d3f f6d5 7e3f
00000120: c738 7c3f 46fc 7e3f d2a9 7d3f ce50 7e3f
00000130: 1a55 7e3f 18a0 7d3f 6d42 7d3f 50df 7f3f
00000140: d6d6 7e3f fd51 7d3f 43e2 7e3f 699d 7e3f
00000150: 876b 7d3f e51b 7b3f ac7e 7c3f 5302 7f3f
00000160: c052 7e3f b970 7e3f 5cae 7f3f db13 7f3f
00000170: 7252 7f3f d79f 7e3f 7da9 7d3f 5876 7f3f
00000180: 2de6 7f3f 5e64 7e3f 9f93 803f 69d8 7a3f
00000190: a682 803f 8359 803f c800 7f3f 02f9 7f3f
